…
s flops has been counted<br>&lt;<span class="hljs-keyword">class</span> <span class="hljs-string">&#x27;paddle.nn.layer.common.Linear&#x27;</span>&gt;<span class="hljs-string">&#x27;s flops has been counted</span><br><span class="hljs-string">+--------------+-----------------+-----------------+--------+--------+</span><br><span class="hljs-string">|  Layer Name  |   Input Shape   |   Output Shape  | Params | Flops  |</span><br><span class="hljs-string">+--------------+-----------------+-----------------+--------+--------+</span><br><span class="hljs-string">|  conv2d_21   |  [1, 1, 32, 32] |  [1, 6, 28, 28] |  156   | 122304 |</span><br><span class="hljs-string">| max_pool2d_3 |  [1, 6, 28, 28] |  [1, 6, 14, 14] |   0    |   0    |</span><br><span class="hljs-string">|  conv2d_22   |  [1, 6, 14, 14] | [1, 16, 10, 10] |  2416  | 241600 |</span><br><span class="hljs-string">| avg_pool2d_3 | [1, 16, 10, 10] |  [1, 16, 5, 5]  |   0    |  400   |</span><br><span class="hljs-string">|  conv2d_23   |  [1, 16, 5, 5]  |  [1, 120, 1, 1] | 48120  | 48120  |</span><br><span class="hljs-string">|  linear_10   |     [1, 120]    |     [1, 84]     | 10164  | 10080  |</span><br><span class="hljs-string">|  linear_11   |     [1, 84]     |     [1, 10]     |  850   |  840   |</span><br><span class="hljs-string">+--------------+-----------------+-----------------+--------+--------+</span><br><span class="hljs-string">Total Flops: 423344     Total Params: 61706</span><br><span class="hljs-string">423344</span><br></code></pre></td></tr></table></figure><p>可以看到，结果与公式推导一致。</p><hr><h4 id="√-5-3-3-模型训练"><a href="#√-5-3-3-模型训练" class="headerlink" title="[√] 5.3.
…
ss="hljs-keyword">class</span> <span class="hljs-string">&#x27;paddle.nn.layer.common.Linear&#x27;</span>&gt;<span class="hljs-string">&#x27;s flops has been counted</span><br><span class="hljs-string">+-----------------------+-----------------+-----------------+---------+---------+</span><br><span class="hljs-string">|       Layer Name      |   Input Shape   |   Output Shape  |  Params |  Flops  |</span><br><span class="hljs-string">+-----------------------+-----------------+-----------------+---------+---------+</span><br><span class="hljs-string">|       conv2d_27       |  [1, 1, 32, 32] | [1, 64, 16, 16] |   3200  |  819200 |</span><br><span class="hljs-string">|     batch_norm2d_0    | [1, 64, 16, 16] | [1, 64, 16, 16] |   256   |  32768  |</span><br><span class="hljs-string">|        re_lu_0        | [1, 64, 16, 16] | [1, 64, 16, 16] |    0    |    0    |</span><br><span class="hljs-string">|      max_pool2d_4     | [1, 64, 16, 16] |  [1, 64, 8, 8]  |    0    |    0    |</span><br><span class="hljs-string">|       conv2d_28       |  [1, 64, 8, 8]  |  [1, 64, 8, 8]  |  36864  | 2359296 |</span><br><span class="hljs-string">|       conv2d_29       |  [1, 64, 8, 8]  |  [1, 64, 8, 8]  |  36864  | 2359296 |</span><br><span class="hljs-string">|     batch_norm2d_1    |  [1, 64, 8, 8]  |  [1, 64, 8, 8]  |   256   |   8192  |</span><br><span class="hljs-string">|     batch_norm2d_2    |  [1, 64, 8, 8]  |  [1, 64, 8, 8]  |   256   |   8192  |</span><br><span class="hljs-string">|       conv2d_30       |  [1, 64, 8, 8]  |  [1, 64, 8, 8]  |  36864  | 2359296 |</span><br><span class="hljs-string">|       conv2d_31       |  [1, 64, 8, 8]  |  [1, 64, 8, 8]  |  36864  | 2359296 |</span><br><span class="hljs-string">|     batch_norm2d_3    |  [1, 64, 8, 8]  |  [1, 64, 8, 8]  |   256   |   8192  |</span><br><span class="hljs-string">|     batch_norm2d_4    |  [1, 64, 8, 8]  |  [1, 64, 8, 8]  |   256   |   8192  |</span><br><span class="hljs-string">|       conv2d_32       |  [1, 64, 8, 8]  |  [1, 128, 4, 4] |  73728  | 1179648 |</span><br><span class="hljs-string">|       conv2d_33       |  [1, 128, 4, 4] |  [1, 128, 4, 4] |  147456 | 2359296 |</span><br><span class="hljs-string">|       conv2d_34       |  [1, 64, 8, 8]  |  [1, 128, 4, 4] |   8192  |  131072 |</span><br><span class="hljs-string">|     batch_norm2d_5    |  [1, 128, 4, 4] |  [1, 128, 4, 4] |   512   |   4096  |</span><br><span class="hljs-string">|     batch_norm2d_6    |  [1, 128, 4, 4] |  [1, 128, 4, 4] |   512   |   4096  |</span><br><span class="hljs-string">|     batch_norm2d_7    |  [1, 128, 4, 4] |  [1, 128, 4, 4] |   512   |   4096  |</span><br><span class="hljs-string">|       conv2d_35       |  [1, 128, 4, 4] |  [1, 128, 4, 4] |  147456 | 2359296 |</span><br><span class="hljs-string">|       conv2d_36       |  [1, 128, 4, 4] |  [1, 128, 4, 4] |  147456 | 2359296 |</span><br><span class="hljs-string">|     batch_norm2d_8    |  [1, 128, 4, 4] |  [1, 128, 4, 4] |   512   |   4096  |</span><br><span class="hljs-string">|     batch_norm2d_9    |  [1, 128, 4, 4] |  [1, 128, 4, 4] |   512   |   4096  |</span><br><span class="hljs-string">|       conv2d_37       |  [1, 128, 4, 4] |  [1, 256, 2, 2] |  294912 | 1179648 |</span><br><span class="hljs-string">|       conv2d_38       |  [1, 256, 2, 2] |  [1, 256, 2, 2] |  589824 | 2359296 |</span><br><span class="hljs-string">|       conv2d_39       |  [1, 128, 4, 4] |  [1, 256, 2, 2] |  32768  |  131072 |</span><br><span class="hljs-string">|    batch_norm2d_10    |  [1, 256, 2, 2] |  [1, 256, 2, 2] |   1024  |   2048  |</span><br><span class="hljs-string">|    batch_norm2d_11    |  [1, 256, 2, 2] |  [1, 256, 2, 2] |   1024  |   2048  |</span><br><span class="hljs-string">|    batch_norm2d_12    |  [1, 256, 2, 2] |  [1, 256, 2, 2] |   1024  |   2048  |</span><br><span class="hljs-string">|       conv2d_40       |  [1, 256, 2, 2] |  [1, 256, 2, 2] |  589824 | 2359296 |</span><br><span class="hljs-string">|       conv2d_41       |  [1, 256, 2, 2] |  [1, 256, 2, 2] |  589824 | 2359296 |</span><br><span class="hljs-string">|    batch_norm2d_13    |  [1, 256, 2, 2] |  [1, 256, 2, 2] |   1024  |   2048  |</span><br><span class="hljs-string">|    batch_norm2d_14    |  [1, 256, 2, 2] |  [1, 256, 2, 2] |   1024  |   2048  |</span><br><span class="hljs-string">|       conv2d_42       |  [1, 256, 2, 2] |  [1, 512, 1, 1] | 1179648 | 1179648 |</span><br><span class="hljs-string">|       conv2d_43       |  [1, 512, 1, 1] |  [1, 512, 1, 1] | 2359296 | 2359296 |</span><br><span class="hljs-string">|       conv2d_44       |  [1, 256, 2, 2] |  [1, 512, 1, 1] |  131072 |  131072 |</span><br><span class="hljs-string">|    batch_norm2d_15    |  [1, 512, 1, 1] |  [1, 512, 1, 1] |   2048  |   1024  |</span><br><span class="hljs-string">|    batch_norm2d_16    |  [1, 512, 1, 1] |  [1, 512, 1, 1] |   2048  |   1024  |</span><br><span class="hljs-string">|    batch_norm2d_17    |  [1, 512, 1, 1] |  [1, 512, 1, 1] |   2048  |   1024  |</span><br><span class="hljs-string">|       conv2d_45       |  [1, 512, 1, 1] |  [1, 512, 1, 1] | 2359296 | 2359296 |</span><br><span class="hljs-string">|       conv2d_46       |  [1, 512, 1, 1] |  [1, 512, 1, 1] | 2359296 | 2359296 |</span><br><span class="hljs-string">|    batch_norm2d_18    |  [1, 512, 1, 1] |  [1, 512, 1, 1] |   2048  |   1024  |</span><br><span class="hljs-string">|    batch_norm2d_19    |  [1, 512, 1, 1] |  [1, 512, 1, 1] |   2048  |   1024  |</span><br><span class="hljs-string">| adaptive_avg_pool2d_0 |  [1, 512, 1, 1] |  [1, 512, 1, 1] |    0    |   1024  |</span><br><span class="hljs-string">|       flatten_0       |  [1, 512, 1, 1] |     [1, 512]    |    0    |    0    |</span><br><span class="hljs-string">|       linear_14       |     [1, 512]    |     [1, 10]     |   5130  |   5120  |</span><br><span class="hljs-string">+-----------------------+-----------------+-----------------+---------+---------+</span><br><span class="hljs-string">Total Flops: 35529728     Total Params: 11185034</span><br><span class="hljs-string">35529728</span><br></code></pre></td></tr></table></figure><p>&#x3D;&#x3D;验证残差连接对卷积神经网络的促进作用：&#x3D;&#x3D;</p><p>为了验证残差连接对深层卷积神经网络的训练可以起到促进作用，接下来先使用
…
